…
(Pdb) --Call--
> /Users/liangming.xu/code/UniAD/projects/mmdet3d_plugin/uniad/dense_heads/track_head_plugin/modules.py(151)_update_track_embedding()
-> def _update_track_embedding(self, track_instances: Instances) -> Instances:
(Pdb) > /Users/liangming.xu/code/UniAD/projects/mmdet3d_plugin/uniad/dense_heads/track_head_plugin/modules.py(152)_update_track_embedding()
-> if len(track_instances) == 0:
(Pdb) <bound method Module.train of QueryInteractionModule(
  (self_attn): MultiheadAttention(
    (out_proj): NonDynamicallyQuantizableLinear(in_features=256, out_features=256, bias=True)
  )
  (linear1): Linear(in_features=256, out_features=256, bias=True)
  (dropout): Dropout(p=0, inplace=False)
  (linear2): Linear(in_features=256, out_features=256, bias=True)
  (linear_pos1): Linear(in_features=256, out_features=256, bias=True)
  (linear_pos2): Linear(in_features=256, out_features=256, bias=True)
  (dropout_pos1): Dropout(p=0, inplace=False)
  (dropout_pos2): Dropout(p=0, inplace=False)
  (norm_pos): LayerNorm((256,), eps=1e-05, elementwise_affine=True)
  (linear_feat1): Linear(in_features=256, out_features=256, bias=True)
  (linear_feat2): Linear(in_features=256, out_features=256, bias=True)
  (dropout_feat1): Dropout(p=0, inplace=False)
  (dropout_feat2): Dropout(p=0, inplace=False)
  (norm_feat): LayerNorm((256,), eps=1e-05, elementwise_affine=True)
  (norm1): LayerNorm((256,), eps=1e-05, elementwise_affine=True)
  (norm2): LayerNorm((256,), eps=1e-05, elementwise_affine=True)
  (dropout1): Dropout(p=0, inplace=False)
  (dropout2): Dropout(p=0, inplace=False)
)>
(Pdb) 147  	        self.dropout1 = nn.Dropout(dropout)
148  	        self.dropout2 = nn.Dropout(dropout)
149  	        self.activation = F.relu
150  	
151  	    def _update_track_embedding(self, track_instances: Instances) -> Instances:
152  ->	        if len(track_instances) == 0:
…
