…
es', 'named_parameters', 'norm1', 'norm2', 'norm_feat', 'norm_pos', 'parameters', 'random_drop', 'register_backward_hook', 'register_buffer', 'register_forward_hook', 'register_forward_pre_hook', 'register_full_backward_hook', 'register_parameter', 'requires_grad_', 'self_attn', 'share_memory', 'state_dict', 'to', 'to_empty', 'train', 'training', 'type', 'update_query_pos', 'xpu', 'zero_grad']
(Pdb) <bound method Module.train of QueryInteractionModule(
  (self_attn): MultiheadAttention(
    (out_proj): NonDynamicallyQuantizableLinear(in_features=256, out_features=256, bias=True)
  )
  (linear1): Linear(in_features=256, out_features=256, bias=True)
  (dropout): Dropout(p=0, inplace=False)
  (linear2): Linear(in_features=256, out_features=256, bias=True)
  (linear_pos1): Linear(in_features=256, out_features=256, bias=True)
  (linear_pos2): Linear(in_features=256, out_features=256, bias=True)
  (dropout_pos1): Dropout(p=0, inplace=False)
  (dropout_pos2): Dropout(p=0, inplace=False)
  (norm_pos): LayerNorm((256,), eps=1e-05, elementwise_affine=True)
  (linear_feat1): Linear(in_features=256, out_features=256, bias=True)
  (linear_feat2): Linear(in_features=256, out_features=256, bias=True)
  (dropout_feat1): Dropout(p=0, inplace=False)
  (dropout_feat2): Dropout(p=0, inplace=False)
  (norm_feat): LayerNorm((256,), eps=1e-05, elementwise_affine=True)
  (norm1): LayerNorm((256,), eps=1e-05, elementwise_affine=True)
  (norm2): LayerNorm((256,), eps=1e-05, elementwise_affine=True)
  (dropout1): Dropout(p=0, inplace=False)
  (dropout2): Dropout(p=0, inplace=False)
)>
(Pdb) 