…
(Pdb) *** NameError: name 'tensor' is not defined
(Pdb) (Pdb) (Pdb) torch.Size([2])
(Pdb) tensor([3, 4])
(Pdb) 275  	
276  	        if detach_query_pos:
277  	            track_query_pos = track_query_pos.detach()
278  	
279  	        ins_query = ins_query[-1]
280  ->	        ins_query = self.mode_fuser(ins_query).max(2)[0]
281  	        ins_query = self.multi_query_fuser(torch.cat([ins_query, track_query, track_query_pos], dim=-1))
282  	
283  	        return ins_query
284  	
285  	    # With matched queries [a small part of all queries] and matched_gt results
(Pdb) torch.Size([1, 2, 256])
(Pdb) Sequential(
  (0): Linear(in_features=256, out_features=256, bias=True)
  (1): LayerNorm((256,), eps=1e-05, elementwise_affine=True)
  (2): ReLU(inplace=True)
)
(Pdb) > /Users/liangming.xu/code/UniAD/projects/mmdet3d_plugin/uniad/dense_heads/occ_head.py(281)merge_queries()
-> ins_query = self.multi_query_fuser(torch.cat([ins_query, track_query, track_query_pos], dim=-1))
(Pdb) torch.Size([1, 2, 256])
(Pdb) Sequential(
  (0): Linear(in_features=768, out_features=512, bias=True)
  (1): LayerNorm((512,), eps=1e-05, elementwise_affine=True)
  (2): ReLU(inplace=True)
  (3): Linear(in_features=512, out_features=256, bias=True)
)
(Pdb) > /Users/liangming.xu/code/UniAD/projects/mmdet3d_plugin/uniad/dense_heads/occ_head.py(283)merge_queries()
-> return ins_query
(Pdb) torch.Size([1, 2, 256])
(Pdb) --Return--
> /Users/liangming.xu/code/UniAD/projects/mmdet3d_plugin/uniad/dense_heads/occ_head.py(283)merge_queries()->tensor([[[-9....9.9264e-01]]])
-> return ins_query
(Pdb) > /Users/liangming.xu/code/UniAD/projects/mmdet3d_plugin/uniad/dense_heads/occ_head.py(431)forward_test()
…
-> base_state = self.bev_light_proj(base_state)
(Pdb) 197  	
198  	    def forward(self, x, ins_query):
199  	        base_state = rearrange(x, '(h w) b d -> b d h w', h=self.bev_size[0])
200  	
201  	        base_state = self.bev_sampler(base_state)
202  ->	        base_state = self.bev_light_proj(base_state)
203  	        base_state = self.base_downscale(base_state)
204  	        base_ins_query = ins_query
205  	
206  	        last_state = base_state
207  	        last_ins_query = base_ins_query
(Pdb) torch.Size([1, 256, 200, 200])
(Pdb) SimpleConv2d(
  (conv_layers): Sequential(
    (0): ConvModule(
      (conv): Conv2d(256, 256, kernel_size=(3, 3), stride=(1, 1), padding=(1, 1), bias=False)
      (bn): BatchNorm2d(256, eps=1e-05, momentum=0.1, affine=True, track_running_stats=True)
      (activate): ReLU(inplace=True)
    )
    (1): ConvModule(
      (conv): Conv2d(256, 256, kernel_size=(3, 3), stride=(1, 1), padding=(1, 1), bias=False)
      (bn): BatchNorm2d(256, eps=1e-05, momentum=0.1, affine=True, track_running_stats=True)
      (activate): ReLU(inplace=True)
    )
    (2): ConvModule(
      (conv): Conv2d(256, 256, kernel_size=(3, 3), stride=(1, 1), padding=(1, 1), bias=False)
      (bn): BatchNorm2d(256, eps=1e-05, momentum=0.1, affine=True, track_running_stats=True)
      (activate): ReLU(inplace=True)
    )
    (3): Conv2d(256, 256, kernel_size=(1, 1), stride=(1, 1))
  )
)
init_cfg={'type': 'Kaiming', 'layer': 'Conv2d'}
(Pdb) > /Users/liangming.xu/code/UniAD/projects/mmdet3d_plugin/uniad/dense_heads/occ_head.py(203)forward()
-> base_state = self.base_downscale(base_state)
(Pdb) torch.Size([1, 256, 200, 200])
(Pdb) Sequential(
  (0): Bottleneck(
    (layers): Sequential(
      (conv_down_project): Conv2d(256, 128, kernel_size=(1, 1), stride=(1, 1), bias=False)
      (abn_down_project): Sequential(
        (0): BatchNorm2d(128, eps=1e-05, momentum=0.1, affine=True, track_running_stats=True)
        (1): ReLU(inplace=True)
      )
      (conv): Conv2d(128, 128, kernel_size=(3, 3), stride=(2, 2), padding=(1, 1), bias=False)
      (abn): Sequential(
        (0): BatchNorm2d(128, eps=1e-05, momentum=0.1, affine=True, track_running_stats=True)
        (1): ReLU(inplace=True)
      )
      (conv_up_project): Conv2d(128, 256, kernel_size=(1, 1), stride=(1, 1), bias=False)
      (abn_up_project): Sequential(
        (0): BatchNorm2d(256, eps=1e-05, momentum=0.1, affine=True, track_running_stats=True)
        (1): ReLU(inplace=True)
      )
      (dropout): Dropout2d(p=0.0, inplace=False)
    )
    (projection): Sequential(
      (upsample_skip_proj): MaxPool2d(kernel_size=2, stride=2, padding=0, dilation=1, ceil_mode=False)
      (conv_skip_proj): Conv2d(256, 256, kernel_size=(1, 1), stride=(1, 1), bias=False)
      (bn_skip_proj): BatchNorm2d(256, eps=1e-05, momentum=0.1, affine=True, track_running_stats=True)
    )
  )
  (1): Bottleneck(
    (layers): Sequential(
      (conv_down_project): Conv2d(256, 128, kernel_size=(1, 1), stride=(1, 1), bias=False)
      (abn_down_project): Sequential(
        (0): BatchNorm2d(128, eps=1e-05, momentum=0.1, affine=True, track_running_stats=True)
        (1): ReLU(inplace=True)
      )
      (conv): Conv2d(128, 128, kernel_size=(3, 3), stride=(2, 2), padding=(1, 1), bias=False)
      (abn): Sequential(
        (0): BatchNorm2d(128, eps=1e-05, momentum=0.1, affine=True, track_running_stats=True)
        (1): ReLU(inplace=True)
      )
      (conv_up_project): Conv2d(128, 256, kernel_size=(1, 1), stride=(1, 1), bias=False)
      (abn_up_project): Sequential(
        (0): BatchNorm2d(256, eps=1e-05, momentum=0.1, affine=True, track_running_stats=True)
        (1): ReLU(inplace=True)
      )
      (dropout): Dropout2d(p=0.0, inplace=False)
    )
    (projection): Sequential(
      (upsample_skip_proj): MaxPool2d(kernel_size=2, stride=2, padding=0, dilation=1, ceil_mode=False)
      (conv_skip_proj): Conv2d(256, 256, kernel_size=(1, 1), stride=(1, 1), bias=False)
      (bn_skip_proj): BatchNorm2d(256, eps=1e-05, momentum=0.1, affine=True, track_running_stats=True)
    )
  )
)
(Pdb) > /Users/liangming.xu/code/UniAD/projects/mmdet3d_plugin/uniad/dense_heads/occ_head.py(204)forward()
-> base_ins_query = ins_query
(Pdb) 199  	        base_state = rearrange(x, '(h w) b d -> b d h w', h=self.bev_size[0])
200  	
201  	        base_state = self.bev_sampler(base_state)
202  	        base_state = self.bev_light_proj(base_state)
…
(Pdb) > /Users/liangming.xu/code/UniAD/projects/mmdet3d_plugin/uniad/dense_heads/occ_head.py(215)forward()
-> for i in range(self.n_future_blocks):
(Pdb) > /Users/liangming.xu/code/UniAD/projects/mmdet3d_plugin/uniad/dense_heads/occ_head.py(217)forward()
-> cur_state = self.downscale_convs[i](last_state)  # /4 -> /8
(Pdb) > /Users/liangming.xu/code/UniAD/projects/mmdet3d_plugin/uniad/dense_heads/occ_head.py(221)forward()
-> cur_ins_query = self.temporal_mlps[i](last_ins_query)  # [b, q, d]
(Pdb) torch.Size([1, 256, 25, 25])
(Pdb) torch.Size([1, 2, 256])
(Pdb) ModuleList(
  (0): MLP(
    (layers): ModuleList(
      (0): Linear(in_features=256, out_features=256, bias=True)
      (1): Linear(in_features=256, out_features=256, bias=True)
    )
  )
  (1): MLP(
    (layers): ModuleList(
      (0): Linear(in_features=256, out_features=256, bias=True)
      (1): Linear(in_features=256, out_features=256, bias=True)
    )
  )
  (2): MLP(
    (layers): ModuleList(
      (0): Linear(in_features=256, out_features=256, bias=True)
      (1): Linear(in_features=256, out_features=256, bias=True)
    )
  )
  (3): MLP(
    (layers): ModuleList(
      (0): Linear(in_features=256, out_features=256, bias=True)
      (1): Linear(in_features=256, out_features=256, bias=True)
    )
  )
  (4): MLP(
    (layers): ModuleList(
      (0): Linear(in_features=256, out_features=256, bias=True)
      (1): Linear(in_features=256, out_features=256, bias=True)
    )
  )
)
(Pdb) 216  	            # Downscale
217  	            cur_state = self.downscale_convs[i](last_state)  # /4 -> /8
218  	
219  	            # Attention
220  	            # temporal_aware ins_query
221  ->	            cur_ins_query = self.temporal_mlps[i](last_ins_query)  # [b, q, d]
222  	            temporal_query.append(cur_ins_query)
223  	
…
      (attn): MultiheadAttention(
        (out_proj): NonDynamicallyQuantizableLinear(in_features=256, out_features=256, bias=True)
      )
      (proj_drop): Dropout(p=0.0, inplace=False)
      (dropout_layer): Identity()
    )
    (1): MultiheadAttention(
      (attn): MultiheadAttention(
        (out_proj): NonDynamicallyQuantizableLinear(in_features=256, out_features=256, bias=True)
      )
      (proj_drop): Dropout(p=0.0, inplace=False)
      (dropout_layer): Identity()
    )
  )
  (ffns): ModuleList(
    (0): FFN(
      (activate): ReLU(inplace=True)
      (layers): Sequential(
        (0): Sequential(
          (0): Linear(in_features=256, out_features=2048, bias=True)
          (1): ReLU(inplace=True)
          (2): Dropout(p=0.0, inplace=False)
        )
        (1): Linear(in_features=2048, out_features=256, bias=True)
        (2): Dropout(p=0.0, inplace=False)
      )
      (dropout_layer): Identity()
    )
  )
  (norms): ModuleList(
    (0): LayerNorm((256,), eps=1e-05, elementwise_affine=True)
    (1): LayerNorm((256,), eps=1e-05, elementwise_affine=True)
    (2): LayerNorm((256,), eps=1e-05, elementwise_affine=True)
  )
)
(Pdb) 232  	            cur_ins_query = rearrange(cur_ins_query, 'b q c -> q b c')
233  	
234  	            for j in range(n_trans_layer_each_block):
235  	                trans_layer_ind = i * n_trans_layer_each_block + j
236  	                trans_layer = self.transformer_decoder.layers[trans_layer_ind]
237  ->	                cur_state = trans_layer(
…
(Pdb) > /Users/liangming.xu/code/UniAD/projects/mmdet3d_plugin/uniad/dense_heads/occ_head.py(255)forward()
-> last_state = cur_state
(Pdb) > /Users/liangming.xu/code/UniAD/projects/mmdet3d_plugin/uniad/dense_heads/occ_head.py(215)forward()
-> for i in range(self.n_future_blocks):
(Pdb) > /Users/liangming.xu/code/UniAD/projects/mmdet3d_plugin/uniad/dense_heads/occ_head.py(217)forward()
-> cur_state = self.downscale_convs[i](last_state)  # /4 -> /8
(Pdb) 5
(Pdb) torch.Size([1, 256, 50, 50])
(Pdb) CVT_Decoder(
  (layers): Sequential(
    (0): CVT_DecoderBlock(
      (conv): Sequential(
        (0): Upsample(scale_factor=2.0, mode=bilinear)
        (1): Conv2d(256, 128, kernel_size=(3, 3), stride=(1, 1), padding=(1, 1), bias=False)
        (2): BatchNorm2d(128, eps=1e-05, momentum=0.1, affine=True, track_running_stats=True)
        (3): ReLU(inplace=True)
        (4): Conv2d(128, 256, kernel_size=(1, 1), stride=(1, 1), bias=False)
        (5): BatchNorm2d(256, eps=1e-05, momentum=0.1, affine=True, track_running_stats=True)
      )
      (up): Conv2d(256, 256, kernel_size=(1, 1), stride=(1, 1))
      (relu): ReLU(inplace=True)
    )
    (1): CVT_DecoderBlock(
      (conv): Sequential(
        (0): Upsample(scale_factor=2.0, mode=bilinear)
        (1): Conv2d(256, 128, kernel_size=(3, 3), stride=(1, 1), padding=(1, 1), bias=False)
        (2): BatchNorm2d(128, eps=1e-05, momentum=0.1, affine=True, track_running_stats=True)
        (3): ReLU(inplace=True)
        (4): Conv2d(128, 256, kernel_size=(1, 1), stride=(1, 1), bias=False)
        (5): BatchNorm2d(256, eps=1e-05, momentum=0.1, affine=True, track_running_stats=True)
      )
      (up): Conv2d(256, 256, kernel_size=(1, 1), stride=(1, 1))
    )
  )
)
init_cfg={'type': 'Kaiming', 'layer': 'Conv2d'}
(Pdb) 212  	        n_trans_layer_each_block = self.num_trans_layers // self.n_future_blocks
213  	        assert n_trans_layer_each_block >= 1
214  	
215  	        for i in range(self.n_future_blocks):
216  	            # Downscale
217  ->	            cur_state = self.downscale_convs[i](last_state)  # /4 -> /8
…
