…
(Pdb) > /Users/liangming.xu/code/UniAD/projects/mmdet3d_plugin/uniad/dense_heads/motion_head_plugin/motion_deformable_attn.py(183)forward()
-> norm_index = 0
(Pdb) > /opt/homebrew/anaconda3/envs/uniad/lib/python3.8/site-packages/torch/nn/modules/module.py(1051)_call_impl()
-> return forward_call(*input, **kwargs)
(Pdb) > /Users/liangming.xu/code/UniAD/projects/mmdet3d_plugin/uniad/dense_heads/motion_head_plugin/modules.py(129)forward()
-> bev_query_embed = self.bev_interaction_layers[lid](
(Pdb) MotionTransformerAttentionLayer(
  (attentions): ModuleList(
    (0): MotionDeformableAttention(
      (dropout): Dropout(p=0.1, inplace=False)
      (sampling_offsets): Linear(in_features=256, out_features=768, bias=True)
      (attention_weights): Linear(in_features=256, out_features=384, bias=True)
      (value_proj): Linear(in_features=256, out_features=256, bias=True)
      (output_proj): Sequential(
        (0): Linear(in_features=3072, out_features=256, bias=True)
        (1): LayerNorm((256,), eps=1e-05, elementwise_affine=True)
        (2): ReLU(inplace=True)
      )
    )
  )
  (ffns): ModuleList(
    (0): FFN(
      (activate): ReLU(inplace=True)
      (layers): Sequential(
        (0): Sequential(
          (0): Linear(in_features=256, out_features=512, bias=True)
          (1): ReLU(inplace=True)
          (2): Dropout(p=0.1, inplace=False)
        )
        (1): Linear(in_features=512, out_features=256, bias=True)
        (2): Dropout(p=0.1, inplace=False)
      )
      (dropout_layer): Identity()
    )
  )
  (norms): ModuleList(
    (0): LayerNorm((256,), eps=1e-05, elementwise_affine=True)
    (1): LayerNorm((256,), eps=1e-05, elementwise_affine=True)
  )
)
(Pdb) > /Users/liangming.xu/code/UniAD/projects/mmdet3d_plugin/uniad/dense_heads/motion_head_plugin/motion_deformable_attn.py(184)forward()
-> attn_index = 0
(Pdb) 179  	        Returns:
180  	            Tensor: forwarded results with shape [num_queries, bs, embed_dims].
181  	        """
182  	
183  	        norm_index = 0
184  ->	        attn_index = 0
…
(Pdb) > /Users/liangming.xu/code/UniAD/projects/mmdet3d_plugin/uniad/dense_heads/motion_head_plugin/motion_deformable_attn.py(217)forward()
-> elif layer == 'norm':
(Pdb) > /Users/liangming.xu/code/UniAD/projects/mmdet3d_plugin/uniad/dense_heads/motion_head_plugin/motion_deformable_attn.py(221)forward()
-> elif layer == 'cross_attn':
(Pdb) > /Users/liangming.xu/code/UniAD/projects/mmdet3d_plugin/uniad/dense_heads/motion_head_plugin/motion_deformable_attn.py(222)forward()
-> query = self.attentions[attn_index](
(Pdb) 0
(Pdb) MotionDeformableAttention(
  (dropout): Dropout(p=0.1, inplace=False)
  (sampling_offsets): Linear(in_features=256, out_features=768, bias=True)
  (attention_weights): Linear(in_features=256, out_features=384, bias=True)
  (value_proj): Linear(in_features=256, out_features=256, bias=True)
  (output_proj): Sequential(
    (0): Linear(in_features=3072, out_features=256, bias=True)
    (1): LayerNorm((256,), eps=1e-05, elementwise_affine=True)
    (2): ReLU(inplace=True)
  )
)
(Pdb) 217  	            elif layer == 'norm':
218  	                query = self.norms[norm_index](query)
219  	                norm_index += 1
220  	
221  	            elif layer == 'cross_attn':
222  ->	                query = self.attentions[attn_index](
223  	                    query,
224  	                    key,
225  	                    value,
…
