…
(Pdb) > /opt/homebrew/anaconda3/envs/uniad/lib/python3.8/site-packages/mmdet/models/utils/transformer.py(118)forward()
-> x = super(DetrTransformerEncoder, self).forward(*args, **kwargs)
(Pdb) --Call--
> /opt/homebrew/anaconda3/envs/uniad/lib/python3.8/site-packages/mmcv/cnn/bricks/transformer.py(549)forward()
-> def forward(self,
(Pdb) > /opt/homebrew/anaconda3/envs/uniad/lib/python3.8/site-packages/mmcv/cnn/bricks/transformer.py(584)forward()
-> for layer in self.layers:
(Pdb) ModuleList(
  (0): BaseTransformerLayer(
    (attentions): ModuleList(
      (0): MultiScaleDeformableAttention(
        (dropout): Dropout(p=0.1, inplace=False)
        (sampling_offsets): Linear(in_features=256, out_features=256, bias=True)
        (attention_weights): Linear(in_features=256, out_features=128, bias=True)
        (value_proj): Linear(in_features=256, out_features=256, bias=True)
        (output_proj): Linear(in_features=256, out_features=256, bias=True)
      )
    )
    (ffns): ModuleList(
      (0): FFN(
        (activate): ReLU(inplace=True)
        (layers): Sequential(
          (0): Sequential(
            (0): Linear(in_features=256, out_features=512, bias=True)
            (1): ReLU(inplace=True)
            (2): Dropout(p=0.1, inplace=False)
          )
          (1): Linear(in_features=512, out_features=256, bias=True)
          (2): Dropout(p=0.1, inplace=False)
        )
        (dropout_layer): Identity()
      )
    )
    (norms): ModuleList(
      (0): LayerNorm((256,), eps=1e-05, elementwise_affine=True)
      (1): LayerNorm((256,), eps=1e-05, elementwise_affine=True)
    )
  )
  (1): BaseTransformerLayer(
    (attentions): ModuleList(
      (0): MultiScaleDeformableAttention(
        (dropout): Dropout(p=0.1, inplace=False)
        (sampling_offsets): Linear(in_features=256, out_features=256, bias=True)
        (attention_weights): Linear(in_features=256, out_features=128, bias=True)
        (value_proj): Linear(in_features=256, out_features=256, bias=True)
        (output_proj): Linear(in_features=256, out_features=256, bias=True)
      )
    )
    (ffns): ModuleList(
      (0): FFN(
        (activate): ReLU(inplace=True)
        (layers): Sequential(
          (0): Sequential(
            (0): Linear(in_features=256, out_features=512, bias=True)
            (1): ReLU(inplace=True)
            (2): Dropout(p=0.1, inplace=False)
          )
          (1): Linear(in_features=512, out_features=256, bias=True)
          (2): Dropout(p=0.1, inplace=False)
        )
        (dropout_layer): Identity()
      )
    )
    (norms): ModuleList(
      (0): LayerNorm((256,), eps=1e-05, elementwise_affine=True)
      (1): LayerNorm((256,), eps=1e-05, elementwise_affine=True)
    )
  )
  (2): BaseTransformerLayer(
    (attentions): ModuleList(
      (0): MultiScaleDeformableAttention(
        (dropout): Dropout(p=0.1, inplace=False)
        (sampling_offsets): Linear(in_features=256, out_features=256, bias=True)
        (attention_weights): Linear(in_features=256, out_features=128, bias=True)
        (value_proj): Linear(in_features=256, out_features=256, bias=True)
        (output_proj): Linear(in_features=256, out_features=256, bias=True)
      )
    )
    (ffns): ModuleList(
      (0): FFN(
        (activate): ReLU(inplace=True)
        (layers): Sequential(
          (0): Sequential(
            (0): Linear(in_features=256, out_features=512, bias=True)
            (1): ReLU(inplace=True)
            (2): Dropout(p=0.1, inplace=False)
          )
          (1): Linear(in_features=512, out_features=256, bias=True)
          (2): Dropout(p=0.1, inplace=False)
        )
        (dropout_layer): Identity()
      )
    )
    (norms): ModuleList(
      (0): LayerNorm((256,), eps=1e-05, elementwise_affine=True)
      (1): LayerNorm((256,), eps=1e-05, elementwise_affine=True)
    )
  )
  (3): BaseTransformerLayer(
    (attentions): ModuleList(
      (0): MultiScaleDeformableAttention(
        (dropout): Dropout(p=0.1, inplace=False)
        (sampling_offsets): Linear(in_features=256, out_features=256, bias=True)
        (attention_weights): Linear(in_features=256, out_features=128, bias=True)
        (value_proj): Linear(in_features=256, out_features=256, bias=True)
        (output_proj): Linear(in_features=256, out_features=256, bias=True)
      )
    )
    (ffns): ModuleList(
      (0): FFN(
        (activate): ReLU(inplace=True)
        (layers): Sequential(
          (0): Sequential(
            (0): Linear(in_features=256, out_features=512, bias=True)
            (1): ReLU(inplace=True)
            (2): Dropout(p=0.1, inplace=False)
          )
          (1): Linear(in_features=512, out_features=256, bias=True)
          (2): Dropout(p=0.1, inplace=False)
        )
        (dropout_layer): Identity()
      )
    )
    (norms): ModuleList(
      (0): LayerNorm((256,), eps=1e-05, elementwise_affine=True)
      (1): LayerNorm((256,), eps=1e-05, elementwise_affine=True)
    )
  )
  (4): BaseTransformerLayer(
    (attentions): ModuleList(
      (0): MultiScaleDeformableAttention(
        (dropout): Dropout(p=0.1, inplace=False)
        (sampling_offsets): Linear(in_features=256, out_features=256, bias=True)
        (attention_weights): Linear(in_features=256, out_features=128, bias=True)
        (value_proj): Linear(in_features=256, out_features=256, bias=True)
        (output_proj): Linear(in_features=256, out_features=256, bias=True)
      )
    )
    (ffns): ModuleList(
      (0): FFN(
        (activate): ReLU(inplace=True)
        (layers): Sequential(
          (0): Sequential(
            (0): Linear(in_features=256, out_features=512, bias=True)
            (1): ReLU(inplace=True)
            (2): Dropout(p=0.1, inplace=False)
          )
          (1): Linear(in_features=512, out_features=256, bias=True)
          (2): Dropout(p=0.1, inplace=False)
        )
        (dropout_layer): Identity()
      )
    )
    (norms): ModuleList(
      (0): LayerNorm((256,), eps=1e-05, elementwise_affine=True)
      (1): LayerNorm((256,), eps=1e-05, elementwise_affine=True)
    )
  )
  (5): BaseTransformerLayer(
    (attentions): ModuleList(
      (0): MultiScaleDeformableAttention(
        (dropout): Dropout(p=0.1, inplace=False)
        (sampling_offsets): Linear(in_features=256, out_features=256, bias=True)
        (attention_weights): Linear(in_features=256, out_features=128, bias=True)
        (value_proj): Linear(in_features=256, out_features=256, bias=True)
        (output_proj): Linear(in_features=256, out_features=256, bias=True)
      )
    )
    (ffns): ModuleList(
      (0): FFN(
        (activate): ReLU(inplace=True)
        (layers): Sequential(
          (0): Sequential(
            (0): Linear(in_features=256, out_features=512, bias=True)
            (1): ReLU(inplace=True)
            (2): Dropout(p=0.1, inplace=False)
          )
          (1): Linear(in_features=512, out_features=256, bias=True)
          (2): Dropout(p=0.1, inplace=False)
        )
        (dropout_layer): Identity()
      )
    )
    (norms): ModuleList(
      (0): LayerNorm((256,), eps=1e-05, elementwise_affine=True)
      (1): LayerNorm((256,), eps=1e-05, elementwise_affine=True)
    )
  )
)
(Pdb) 579  	                shape [bs, num_keys]. Default: None.
580  	
581  	        Returns:
582  	            Tensor:  results with shape [num_queries, bs, embed_dims].
583  	        """
584  ->	        for layer in self.layers:
585  	            query = layer(
586  	                query,
587  	                key,
588  	                value,
…
