…
(Pdb) --Call--
> /opt/homebrew/anaconda3/envs/uniad/lib/python3.8/site-packages/mmdet/models/utils/transformer.py(112)forward()
-> def forward(self, *args, **kwargs):
(Pdb) > /opt/homebrew/anaconda3/envs/uniad/lib/python3.8/site-packages/mmdet/models/utils/transformer.py(118)forward()
-> x = super(DetrTransformerEncoder, self).forward(*args, **kwargs)
(Pdb) self = DetrTransformerEncoder(
  (layers): ModuleList(
    (0): BaseTransformerLayer(
      (attentions): ModuleList(
        (0): MultiScaleDeformableAttention(
          (dropout): Dropout(p=0.1, inplace=False)
          (sampling_offsets): Linear(in_features=256, out_features=256, bias=True)
          (attention_weights): Linear(in_features=256, out_features=128, bias=True)
          (value_proj): Linear(in_features=256, out_features=256, bias=True)
          (output_proj): Linear(in_features=256, out_features=256, bias=True)
        )
      )
      (ffns): ModuleList(
        (0): FFN(
          (activate): ReLU(inplace=True)
          (layers): Sequential(
            (0): Sequential(
              (0): Linear(in_features=256, out_features=512, bias=True)
              (1): ReLU(inplace=True)
              (2): Dropout(p=0.1, inplace=False)
            )
            (1): Linear(in_features=512, out_features=256, bias=True)
            (2): Dropout(p=0.1, inplace=False)
          )
          (dropout_layer): Identity()
        )
      )
      (norms): ModuleList(
        (0): LayerNorm((256,), eps=1e-05, elementwise_affine=True)
        (1): LayerNorm((256,), eps=1e-05, elementwise_affine=True)
      )
    )
    (1): BaseTransformerLayer(
      (attentions): ModuleList(
        (0): MultiScaleDeformableAttention(
          (dropout): Dropout(p=0.1, inplace=False)
          (sampling_offsets): Linear(in_features=256, out_features=256, bias=True)
          (attention_weights): Linear(in_features=256, out_features=128, bias=True)
          (value_proj): Linear(in_features=256, out_features=256, bias=True)
          (output_proj): Linear(in_features=256, out_features=256, bias=True)
        )
      )
      (ffns): ModuleList(
        (0): FFN(
          (activate): ReLU(inplace=True)
          (layers): Sequential(
            (0): Sequential(
              (0): Linear(in_features=256, out_features=512, bias=True)
              (1): ReLU(inplace=True)
              (2): Dropout(p=0.1, inplace=False)
            )
            (1): Linear(in_features=512, out_features=256, bias=True)
            (2): Dropout(p=0.1, inplace=False)
          )
          (dropout_layer): Identity()
        )
      )
      (norms): ModuleList(
        (0): LayerNorm((256,), eps=1e-05, elementwise_affine=True)
        (1): LayerNorm((256,), eps=1e-05, elementwise_affine=True)
      )
    )
    (2): BaseTransformerLayer(
      (attentions): ModuleList(
        (0): MultiScaleDeformableAttention(
          (dropout): Dropout(p=0.1, inplace=False)
          (sampling_offsets): Linear(in_features=256, out_features=256, bias=True)
          (attention_weights): Linear(in_features=256, out_features=128, bias=True)
          (value_proj): Linear(in_features=256, out_features=256, bias=True)
          (output_proj): Linear(in_features=256, out_features=256, bias=True)
        )
      )
      (ffns): ModuleList(
        (0): FFN(
          (activate): ReLU(inplace=True)
          (layers): Sequential(
            (0): Sequential(
              (0): Linear(in_features=256, out_features=512, bias=True)
              (1): ReLU(inplace=True)
              (2): Dropout(p=0.1, inplace=False)
            )
            (1): Linear(in_features=512, out_features=256, bias=True)
            (2): Dropout(p=0.1, inplace=False)
          )
          (dropout_layer): Identity()
        )
      )
      (norms): ModuleList(
        (0): LayerNorm((256,), eps=1e-05, elementwise_affine=True)
        (1): LayerNorm((256,), eps=1e-05, elementwise_affine=True)
      )
    )
    (3): BaseTransformerLayer(
      (attentions): ModuleList(
        (0): MultiScaleDeformableAttention(
          (dropout): Dropout(p=0.1, inplace=False)
          (sampling_offsets): Linear(in_features=256, out_features=256, bias=True)
          (attention_weights): Linear(in_features=256, out_features=128, bias=True)
          (value_proj): Linear(in_features=256, out_features=256, bias=True)
          (output_proj): Linear(in_features=256, out_features=256, bias=True)
        )
      )
      (ffns): ModuleList(
        (0): FFN(
          (activate): ReLU(inplace=True)
          (layers): Sequential(
            (0): Sequential(
              (0): Linear(in_features=256, out_features=512, bias=True)
              (1): ReLU(inplace=True)
              (2): Dropout(p=0.1, inplace=False)
            )
            (1): Linear(in_features=512, out_features=256, bias=True)
            (2): Dropout(p=0.1, inplace=False)
          )
          (dropout_layer): Identity()
        )
      )
      (norms): ModuleList(
        (0): LayerNorm((256,), eps=1e-05, elementwise_affine=True)
        (1): LayerNorm((256,), eps=1e-05, elementwise_affine=True)
      )
    )
    (4): BaseTransformerLayer(
      (attentions): ModuleList(
        (0): MultiScaleDeformableAttention(
          (dropout): Dropout(p=0.1, inplace=False)
          (sampling_offsets): Linear(in_features=256, out_features=256, bias=True)
          (attention_weights): Linear(in_features=256, out_features=128, bias=True)
          (value_proj): Linear(in_features=256, out_features=256, bias=True)
          (output_proj): Linear(in_features=256, out_features=256, bias=True)
        )
      )
      (ffns): ModuleList(
        (0): FFN(
          (activate): ReLU(inplace=True)
          (layers): Sequential(
            (0): Sequential(
              (0): Linear(in_features=256, out_features=512, bias=True)
              (1): ReLU(inplace=True)
              (2): Dropout(p=0.1, inplace=False)
            )
            (1): Linear(in_features=512, out_features=256, bias=True)
            (2): Dropout(p=0.1, inplace=False)
          )
          (dropout_layer): Identity()
        )
      )
      (norms): ModuleList(
        (0): LayerNorm((256,), eps=1e-05, elementwise_affine=True)
        (1): LayerNorm((256,), eps=1e-05, elementwise_affine=True)
      )
    )
    (5): BaseTransformerLayer(
      (attentions): ModuleList(
        (0): MultiScaleDeformableAttention(
          (dropout): Dropout(p=0.1, inplace=False)
          (sampling_offsets): Linear(in_features=256, out_features=256, bias=True)
          (attention_weights): Linear(in_features=256, out_features=128, bias=True)
          (value_proj): Linear(in_features=256, out_features=256, bias=True)
          (output_proj): Linear(in_features=256, out_features=256, bias=True)
        )
      )
      (ffns): ModuleList(
        (0): FFN(
          (activate): ReLU(inplace=True)
          (layers): Sequential(
            (0): Sequential(
              (0): Linear(in_features=256, out_features=512, bias=True)
              (1): ReLU(inplace=True)
              (2): Dropout(p=0.1, inplace=False)
            )
            (1): Linear(in_features=512, out_features=256, bias=True)
            (2): Dropout(p=0.1, inplace=False)
          )
          (dropout_layer): Identity()
        )
      )
      (norms): ModuleList(
        (0): LayerNorm((256,), eps=1e-05, elementwise_affine=True)
        (1): LayerNorm((256,), eps=1e-05, elementwise_affine=True)
      )
    )
  )
)
args = ()
kwargs = {'query': tensor([[[-0.6875, -0.5693, -1.9356,  ...,  1.0307,  0.3035, -1.0652]],

        [[-0.6930, -0.4575, -1.9585,  ...,  1.0475,  0.3035, -1.0094]],

        [[-0.5533, -0.5116, -2.0531,  ...,  0.9059,  0.4282, -0.9072]],

        ...,

        [[-1.1203, -0.1974, -0.8452,  ..., -0.1053,  0.4028, -0.1727]],

        [[-1.1513, -0.1712, -0.8412,  ..., -0.0746,  0.4519, -0.1574]],
…
