…
(Pdb) *** SyntaxError: can't use starred expression here
(Pdb) self = DetectionTransformerDecoder(
  (layers): ModuleList(
    (0): DetrTransformerDecoderLayer(
      (attentions): ModuleList(
        (0): MultiheadAttention(
          (attn): MultiheadAttention(
            (out_proj): NonDynamicallyQuantizableLinear(in_features=256, out_features=256, bias=True)
          )
          (proj_drop): Dropout(p=0.0, inplace=False)
          (dropout_layer): Dropout(p=0.1, inplace=False)
        )
        (1): CustomMSDeformableAttention(
          (dropout): Dropout(p=0.1, inplace=False)
          (sampling_offsets): Linear(in_features=256, out_features=64, bias=True)
          (attention_weights): Linear(in_features=256, out_features=32, bias=True)
          (value_proj): Linear(in_features=256, out_features=256, bias=True)
          (output_proj): Linear(in_features=256, out_features=256, bias=True)
        )
      )
      (ffns): ModuleList(
        (0): FFN(
          (activate): ReLU(inplace=True)
          (layers): Sequential(
            (0): Sequential(
              (0): Linear(in_features=256, out_features=512, bias=True)
              (1): ReLU(inplace=True)
              (2): Dropout(p=0.1, inplace=False)
            )
            (1): Linear(in_features=512, out_features=256, bias=True)
            (2): Dropout(p=0.1, inplace=False)
          )
          (dropout_layer): Identity()
        )
      )
      (norms): ModuleList(
        (0): LayerNorm((256,), eps=1e-05, elementwise_affine=True)
        (1): LayerNorm((256,), eps=1e-05, elementwise_affine=True)
        (2): LayerNorm((256,), eps=1e-05, elementwise_affine=True)
      )
    )
    (1): DetrTransformerDecoderLayer(
      (attentions): ModuleList(
        (0): MultiheadAttention(
          (attn): MultiheadAttention(
            (out_proj): NonDynamicallyQuantizableLinear(in_features=256, out_features=256, bias=True)
          )
          (proj_drop): Dropout(p=0.0, inplace=False)
          (dropout_layer): Dropout(p=0.1, inplace=False)
        )
        (1): CustomMSDeformableAttention(
          (dropout): Dropout(p=0.1, inplace=False)
          (sampling_offsets): Linear(in_features=256, out_features=64, bias=True)
          (attention_weights): Linear(in_features=256, out_features=32, bias=True)
          (value_proj): Linear(in_features=256, out_features=256, bias=True)
          (output_proj): Linear(in_features=256, out_features=256, bias=True)
        )
      )
      (ffns): ModuleList(
        (0): FFN(
          (activate): ReLU(inplace=True)
          (layers): Sequential(
            (0): Sequential(
              (0): Linear(in_features=256, out_features=512, bias=True)
              (1): ReLU(inplace=True)
              (2): Dropout(p=0.1, inplace=False)
            )
            (1): Linear(in_features=512, out_features=256, bias=True)
            (2): Dropout(p=0.1, inplace=False)
          )
          (dropout_layer): Identity()
        )
      )
      (norms): ModuleList(
        (0): LayerNorm((256,), eps=1e-05, elementwise_affine=True)
        (1): LayerNorm((256,), eps=1e-05, elementwise_affine=True)
        (2): LayerNorm((256,), eps=1e-05, elementwise_affine=True)
      )
    )
    (2): DetrTransformerDecoderLayer(
      (attentions): ModuleList(
        (0): MultiheadAttention(
          (attn): MultiheadAttention(
            (out_proj): NonDynamicallyQuantizableLinear(in_features=256, out_features=256, bias=True)
          )
          (proj_drop): Dropout(p=0.0, inplace=False)
          (dropout_layer): Dropout(p=0.1, inplace=False)
        )
        (1): CustomMSDeformableAttention(
          (dropout): Dropout(p=0.1, inplace=False)
          (sampling_offsets): Linear(in_features=256, out_features=64, bias=True)
          (attention_weights): Linear(in_features=256, out_features=32, bias=True)
          (value_proj): Linear(in_features=256, out_features=256, bias=True)
          (output_proj): Linear(in_features=256, out_features=256, bias=True)
        )
      )
      (ffns): ModuleList(
        (0): FFN(
          (activate): ReLU(inplace=True)
          (layers): Sequential(
            (0): Sequential(
              (0): Linear(in_features=256, out_features=512, bias=True)
              (1): ReLU(inplace=True)
              (2): Dropout(p=0.1, inplace=False)
            )
            (1): Linear(in_features=512, out_features=256, bias=True)
            (2): Dropout(p=0.1, inplace=False)
          )
          (dropout_layer): Identity()
        )
      )
      (norms): ModuleList(
        (0): LayerNorm((256,), eps=1e-05, elementwise_affine=True)
        (1): LayerNorm((256,), eps=1e-05, elementwise_affine=True)
        (2): LayerNorm((256,), eps=1e-05, elementwise_affine=True)
      )
    )
    (3): DetrTransformerDecoderLayer(
      (attentions): ModuleList(
        (0): MultiheadAttention(
          (attn): MultiheadAttention(
            (out_proj): NonDynamicallyQuantizableLinear(in_features=256, out_features=256, bias=True)
          )
          (proj_drop): Dropout(p=0.0, inplace=False)
          (dropout_layer): Dropout(p=0.1, inplace=False)
        )
        (1): CustomMSDeformableAttention(
          (dropout): Dropout(p=0.1, inplace=False)
          (sampling_offsets): Linear(in_features=256, out_features=64, bias=True)
          (attention_weights): Linear(in_features=256, out_features=32, bias=True)
          (value_proj): Linear(in_features=256, out_features=256, bias=True)
          (output_proj): Linear(in_features=256, out_features=256, bias=True)
        )
      )
      (ffns): ModuleList(
        (0): FFN(
          (activate): ReLU(inplace=True)
          (layers): Sequential(
            (0): Sequential(
              (0): Linear(in_features=256, out_features=512, bias=True)
              (1): ReLU(inplace=True)
              (2): Dropout(p=0.1, inplace=False)
            )
            (1): Linear(in_features=512, out_features=256, bias=True)
            (2): Dropout(p=0.1, inplace=False)
          )
          (dropout_layer): Identity()
        )
      )
      (norms): ModuleList(
        (0): LayerNorm((256,), eps=1e-05, elementwise_affine=True)
        (1): LayerNorm((256,), eps=1e-05, elementwise_affine=True)
        (2): LayerNorm((256,), eps=1e-05, elementwise_affine=True)
      )
    )
    (4): DetrTransformerDecoderLayer(
      (attentions): ModuleList(
        (0): MultiheadAttention(
          (attn): MultiheadAttention(
            (out_proj): NonDynamicallyQuantizableLinear(in_features=256, out_features=256, bias=True)
          )
          (proj_drop): Dropout(p=0.0, inplace=False)
          (dropout_layer): Dropout(p=0.1, inplace=False)
        )
        (1): CustomMSDeformableAttention(
          (dropout): Dropout(p=0.1, inplace=False)
          (sampling_offsets): Linear(in_features=256, out_features=64, bias=True)
          (attention_weights): Linear(in_features=256, out_features=32, bias=True)
          (value_proj): Linear(in_features=256, out_features=256, bias=True)
          (output_proj): Linear(in_features=256, out_features=256, bias=True)
        )
      )
      (ffns): ModuleList(
        (0): FFN(
          (activate): ReLU(inplace=True)
          (layers): Sequential(
            (0): Sequential(
              (0): Linear(in_features=256, out_features=512, bias=True)
              (1): ReLU(inplace=True)
              (2): Dropout(p=0.1, inplace=False)
            )
            (1): Linear(in_features=512, out_features=256, bias=True)
            (2): Dropout(p=0.1, inplace=False)
          )
          (dropout_layer): Identity()
        )
      )
      (norms): ModuleList(
        (0): LayerNorm((256,), eps=1e-05, elementwise_affine=True)
        (1): LayerNorm((256,), eps=1e-05, elementwise_affine=True)
        (2): LayerNorm((256,), eps=1e-05, elementwise_affine=True)
      )
    )
    (5): DetrTransformerDecoderLayer(
      (attentions): ModuleList(
        (0): MultiheadAttention(
          (attn): MultiheadAttention(
            (out_proj): NonDynamicallyQuantizableLinear(in_features=256, out_features=256, bias=True)
          )
          (proj_drop): Dropout(p=0.0, inplace=False)
          (dropout_layer): Dropout(p=0.1, inplace=False)
        )
        (1): CustomMSDeformableAttention(
          (dropout): Dropout(p=0.1, inplace=False)
          (sampling_offsets): Linear(in_features=256, out_features=64, bias=True)
          (attention_weights): Linear(in_features=256, out_features=32, bias=True)
          (value_proj): Linear(in_features=256, out_features=256, bias=True)
          (output_proj): Linear(in_features=256, out_features=256, bias=True)
        )
      )
      (ffns): ModuleList(
        (0): FFN(
          (activate): ReLU(inplace=True)
          (layers): Sequential(
            (0): Sequential(
              (0): Linear(in_features=256, out_features=512, bias=True)
              (1): ReLU(inplace=True)
              (2): Dropout(p=0.1, inplace=False)
            )
            (1): Linear(in_features=512, out_features=256, bias=True)
            (2): Dropout(p=0.1, inplace=False)
          )
          (dropout_layer): Identity()
        )
      )
      (norms): ModuleList(
        (0): LayerNorm((256,), eps=1e-05, elementwise_affine=True)
        (1): LayerNorm((256,), eps=1e-05, elementwise_affine=True)
        (2): LayerNorm((256,), eps=1e-05, elementwise_affine=True)
      )
    )
  )
)
query = tensor([[[ 0.6480,  0.2811, -0.2607,  ..., -0.8909, -0.0528, -0.0377]],

        [[-0.2563,  0.1156,  0.2873,  ...,  0.8429,  0.9830,  1.0372]],

        [[-0.8602, -0.6083,  0.8370,  ..., -0.6641, -0.4396,  1.1959]],

        ...,

        [[ 0.9641, -1.1517,  1.5512,  ..., -0.0273,  0.7269,  0.7551]],

        [[-1.3520, -1.5156,  1.2338,  ...,  0.1317, -0.8664,  1.2704]],

        [[ 0.6522, -0.4622,  0.1510,  ...,  2.9896,  0.3278,  1.9336]]])
reference_points = tensor([[[0.5218, 0.6756, 0.4989],
         [0.2509, 0.7227, 0.4983],
         [0.8380, 0.5674, 0.4762],
         ...,
         [0.4774, 0.7556, 0.5036],
         [0.7765, 0.9336, 0.5462],
         [0.4597, 0.6299, 0.4880]]])
reg_branches = ModuleList(
  (0): Sequential(
    (0): Linear(in_features=256, out_features=256, bias=True)
    (1): ReLU()
    (2): Linear(in_features=256, out_features=256, bias=True)
    (3): ReLU()
    (4): Linear(in_features=256, out_features=10, bias=True)
  )
  (1): Sequential(
    (0): Linear(in_features=256, out_features=256, bias=True)
    (1): ReLU()
    (2): Linear(in_features=256, out_features=256, bias=True)
    (3): ReLU()
    (4): Linear(in_features=256, out_features=10, bias=True)
  )
  (2): Sequential(
    (0): Linear(in_features=256, out_features=256, bias=True)
    (1): ReLU()
    (2): Linear(in_features=256, out_features=256, bias=True)
    (3): ReLU()
    (4): Linear(in_features=256, out_features=10, bias=True)
  )
  (3): Sequential(
    (0): Linear(in_features=256, out_features=256, bias=True)
    (1): ReLU()
    (2): Linear(in_features=256, out_features=256, bias=True)
    (3): ReLU()
    (4): Linear(in_features=256, out_features=10, bias=True)
  )
  (4): Sequential(
    (0): Linear(in_features=256, out_features=256, bias=True)
    (1): ReLU()
    (2): Linear(in_features=256, out_features=256, bias=True)
    (3): ReLU()
    (4): Linear(in_features=256, out_features=10, bias=True)
  )
  (5): Sequential(
    (0): Linear(in_features=256, out_features=256, bias=True)
    (1): ReLU()
    (2): Linear(in_features=256, out_features=256, bias=True)
    (3): ReLU()
    (4): Linear(in_features=256, out_features=10, bias=True)
  )
)
key_padding_mask = None
args = ()
kwargs = {'key': None, 'value': tensor([[[-0.9350, -0.2884, -1.9021,  ...,  0.9670,  0.3114, -0.7023]],

        [[ 0.2217, -0.3245, -1.6088,  ...,  0.9868,  0.3178, -1.2605]],

        [[ 0.3780,  0.0084, -1.7977,  ...,  0.8698,  0.0845, -1.3612]],

        ...,

        [[-1.1768, -0.0437, -1.1996,  ..., -0.6112,  0.4443, -0.4444]],
…
